Lab#5/gesture_model.tflite (tflite, 76944 bytes, 6 tensors)

sequential/dense_1/BiasAdd/ReadVariableOp f4 [15]
00000000: d9cf 85bb f99e 08bb 0000 0000 0000 0000
00000010: 0000 0000 0000 0000 e6a5 dbbb c9a2 19bb
00000020: 0000 0000 3628 02bb cb3a 4fbb eeda 43bb
00000030: 4c04 46bb 0000 0000 4e31 d0bb
-0.0040836153 -0.0020846708 0.0 0.0 0.0 0.0 -0.0067031262 -0.0023442975
0.0 -0.0019860393 -0.0031620737 -0.002988513 -0.0030214963 0.0 -0.006353534

sequential/dense_2/BiasAdd/ReadVariableOp f4 [3]
00000000: 1181 79be 415d 7d3e 7c8d 52bf
-0.24365641 0.24742605 -0.8224714

sequential/dense/BiasAdd/ReadVariableOp f4 [50]
00000000: e581 4ebb e623 4fbb 0000 0000 6d7d d1ba
00000010: 0000 0000 0000 0000 4701 ed3b 15a4 c13b
00000020: 0000 0000 0000 0000 0000 0000 4224 baba
00000030: 0000 0000 0000 0000 5037 4fbb 0019 bebb
00000040: 8a44 8bbb 0000 0000 0000 0000 49b2 943b
00000050: 8f5c a0bb 0000 0000 7e48 b3ba 631f 5e3b
00000060: 74c0 973a 98a2 2bbb da31 4fbb cb9d 683a
00000070: 1b2d 1e3b 0000 0000 64f5 4ebb 0000 0000
00000080: 0000 0000 c60e 80bb 0000 0000 5920 60bb
00000090: 0d52 46ba 549b 91bb 883c b9bb 0000 0000
000000a0: 0b9e b83b c39a 8739 0000 0000 0000 0000
000000b0: 0000 0000 0000 0000 98bd 68bb 0000 0000
000000c0: e728 87bb 0000 0000
-0.0031510529 -0.003160709 0.0 -0.0015982814 0.0 0.0 0.0072328183 0.0059094527
0.0 0.0 0.0 -0.001420148 0.0 0.0 -0.0031618662 -0.00580132
-0.004250114 0.0 0.0 0.004537855 -0.0048938463 0.0 -0.001367822 0.003389322
0.0011577741 -0.0026189443 -0.0031615407 0.00088736106 0.0024135772 0.0 -0.003157937 0.0
0.0 -0.003908011 0.0 -0.0034198968 -0.0007565327 -0.0044435654 -0.005652968 0.0
0.0056340746 0.00025864513 0.0 0.0 0.0 0.0 -0.0035513397 0.0
-0.004124749 0.0

sequential/dense/MatMul f4 [50, 357]
00000000: 0271 e53d f027 37bd 0595 38bd f23f c83d
00000010: 4323 e63d 6cc8 c9bd 942b b23d 4a8d 88bc
00000020: 30c7 c4bb 019c 79bc 7b74 b1bd a9bd d13d
00000030: d657 a0bd fe1e 2b3d 2a75 bd3d b82f f8bc
00000040: 4540 963c 7bb5 d33c 2419 90bd 5f3a ae3c
00000050: 61ec b13c 5257 db3c d249 e53d d14f ffbc
00000060: f2b7 853d 5799 f8bd e2f2 2c3d 1d89 be3d
00000070: 5366 85bd cb84 be3d 2778 bbbc 7c82 cb3c
00000080: e880 bcbd 4462 d83b 933f 463d ebc5 bd3b
00000090: 9fc4 c8bd 7b80 4b3d 8b89 b2bd a05a bf3d
000000a0: c046 5cb9 053e abbd 86e6 dc3d 814b febc
000000b0: 618d b3bd e6ef 2bbd 850b 3f3d 865f a3bd
000000c0: bd59 923d d13f febd 8553 8dbd 08a0 e23d
000000d0: 9416 a63d 66ab e1bd d263 ad3c bc09 863d
000000e0: 98e4 79bd 0354 c33d dd1a 033d 67fe fabd
000000f0: 6bb9 053d aab7 86bd d478 73bc 0d2f 983d
00000100: 2ec0 ed3c b88e 93bc 05b0 8bbd 7a1d 933d
00000110: afcd a53d 3cbb 143d 2fbc 9bbd 2ad7 babd
00000120: 75fd 043d 37f0 823d 828c 11bd 5b77 febd
00000130: b5b8 62bd 89b1 d83c deb7 e3bd a07c a938
00000140: 0d49 96bd 22e3 ba3d 69c4 5d3d 9858 83bd
00000150: 92d9 a1bd fa4c c03d 4331 aabd 4fee 463d
00000160: e198 b2bd be29 78bc 3c91 d83b 7ac4 5cbd
00000170: 6626 a9bd 5aa8 91bd 984c 183c f794 5b3d
00000180: c27a cd3d 17d9 19bd 55f0 0b3d 67c9 c4bd
00000190: d1c5 89bc 0c3a 97bd 376e 513d c672 99bd
000001a0: c416 a0bb 7eb3 fabc 8aa2 b3bb c141 953d
000001b0: 121e cebd a090 b43d 833b e0bd d251 c83d
000001c0: 0e88 dbbd 5c6c 773d 9504 dcbd 5230 45bd
000001d0: d881 95bd 61dd 093d 593b a43d ea07 4abb
000001e0: 6c22 b23d e0db d03c da1a e63d 247b d1bd
000001f0: e5e6 21bb e6db d43d 3284 ad3d 474f f0bd
00000200: b0b9 81bc a3cf 653b cf0e 433d 6897 b7bd
00000210: 6b66 ee3c c9a2 a4bd bfd9 bc3d 9a2e e03d
00000220: 437c 66bd d2d0 e1bd b2b6 78bd 9011 9b3d
00000230: 4034 143d aea0 cebd 6340 9fbd 094a 813d
00000240: cd7f 55bd edd1 cb3c df7c 2ebb 8fec 52bc
00000250: 06d3 22bd 559a 19bd d2bb d2bc b377 db3d
00000260: 4a49 893d b007 2dbc 9efe 75bd 3f7a a03d
00000270: 651a 91bd aff9 8abd 74bf eabc c854 243d
00000280: 14b8 e23b bed7 b43d 101f 55bb ae70 923d
00000290: 8086 8a3c 5d43 1abc db17 be3c 36bd d4bd
000002a0: 4ff5 e5bd 5b19 993d 1eb4 613b 7fe9 003d
000002b0: 10a8 5d3d 5641 6ebc 82c7 a9bd 386a 97bc
000002c0: e168 e1bd cf9e 8f3c a139 3bbd 7cda b2bd
000002d0: ffb2 493d 4f9e 60bc b625 c33d 2d01 323d
000002e0: 6d72 663d 5642 b03d 12d0 833d 4fb7 d63c
000002f0: 54d7 a7bd b5ca 26bd 1529 31bd 0a4f 7cbc
00000300: 325f 73bd d942 dabd d832 89bd 1f01 833d
00000310: bc2c c03c cd25 61bd 2b87 353d e085 f23b
00000320: 3302 4b3d 9101 b23c 384b 343d 1856 ad3d
00000330: cfcb aa3d 9b34 623d 7be1 0bbd 1502 a03d
00000340: 3fa5 c33b 4f6d acbd 14da e8bd e853 a43c
00000350: ced3 883d 37b8 95bd ce4d 97bb 7e23 883c
00000360: 04d9 b23d 6f30 c93d a189 b93d 298d c23d
00000370: bcab 3bbd 32d0 45bd 7290 d6bd 17d8 b93c
00000380: 9e00 0a3d efb4 e03d 7535 dcbd 1188 ec3c
00000390: b2c8 e03d ba30 c13d 1b9d bdbc 36f3 1abd
000003a0: b989 63bd 86a2 7dbd 80b9 18bd af0a a4bd
000003b0: 1d45 e1bd 6013 cb3d b0a3 913d 5b99 96bd
000003c0: bba5 f9bc 7769 ecbc 2b78 bd3d 6666 993d
000003d0: 1a7c b83d 3031 e0bd 1967 ecbd d785 b5bc
000003e0: f856 b3bd 1b41 fdbd 4c42 45bd f565 a53d
000003f0: 1d5f 83bc 84ff 8a3d f0cf cc3c 4cd5 a3ba
0.11203195 -0.04471582 -0.04506399 0.097778216 0.112371944 -0.098526806 0.08699718 -0.016668934
-0.0060051903 -0.015234948 -0.08664795 0.10241253 -0.078292534 0.041777603 0.09250863 -0.030296192
0.018341193 0.025843373 -0.07036045 0.021268068 0.02171916 0.026775036 0.11195721 -0.03116599
0.065292254 -0.12138622 0.04222382 0.09303496 -0.065136574 0.09302672 -0.022884442 0.024842493
-0.092042744 0.006603511 0.048400473 0.005791416 -0.098031275 0.049683075 -0.087176405 0.09343457
-0.00021007191 -0.08361439 0.10786156 -0.031041862 -0.087672 -0.04197683 0.046641845 -0.07977204
0.071460225 -0.12414516 -0.06900696 0.1106568 0.08109775 -0.1101902 0.021165762 0.065448254
-0.06100902 0.09537508 0.03200804 -0.12255555 0.03264753 -0.06578 -0.014860351 0.07430849
0.029022302 -0.01801239 -0.068206824 0.071833566 0.08095872 0.036311373 -0.076042525 -0.091230705
0.032468278 0.063934736 -0.03553439 -0.12425109 -0.05535193 0.026451843 -0.11119054 8.081761e-05
-0.07338152 0.091253534 0.05414239 -0.06413382 -0.07902826 0.09389682 -0.08310177 0.048567113
-0.087205656 -0.015146671 0.00660911 -0.053898312 -0.08259277 -0.07112189 0.009295605 0.05360886
0.1003318 -0.03756055 0.034164745 -0.09608727 -0.016817959 -0.073841184 0.0511305 -0.074925944
-0.0048855264 -0.030603167 -0.0054820227 0.07287932 -0.10064329 0.088166475 -0.10948851 0.09781231
-0.1071931 0.060406074 -0.107430615 -0.048141785 -0.07300156 0.03365839 0.08019132 -0.003082747
0.08697972 0.02549547 0.1123559 -0.10228565 -0.0024704274 0.10393505 0.0847248 -0.11733871
-0.015835613 0.0035066388 0.047621544 -0.08964425 0.029101571 -0.08038861 0.09221219 0.109463885
-0.05627085 -0.110261574 -0.060721107 0.07571709 0.036182642 -0.10089241 -0.07775953 0.06312949
-0.052123833 0.024880374 -0.0026624722 -0.012873783 -0.03975203 -0.037500698 -0.025724325 0.1071619
0.06703432 -0.010560915 -0.060057275 0.078358166 -0.070851125 -0.067859046 -0.028655745 0.040119916
0.0069189165 0.08830212 -0.0032519735 0.07150398 0.016909838 -0.009415475 0.023204735 -0.103876516
-0.112284295 0.07475539 0.0034439634 0.03147268 0.054115355 -0.0145419445 -0.08290006 -0.018483266
-0.11006332 0.01753178 -0.045709256 -0.08733079 0.04924297 -0.013709619 0.09528677 0.043458153
0.05626147 0.086064026 0.06436171 0.026210455 -0.081953675 -0.04072066 -0.04325207 -0.015399704
-0.059416957 -0.106572814 -0.06699151 0.06396698 0.023458831 -0.05496769 0.04431836 0.007401213
0.049562644 0.021729263 0.044017047 0.08463687 0.08339655 0.05522595 -0.03415058 0.07812897
0.0059706266 -0.084192865 -0.1136972 0.02005954 0.066810235 -0.07310527 -0.0046174293 0.016618486
0.08732799 0.09823691 0.09059454 0.094995804 -0.045818076 -0.048294254 -0.104767695 0.022686047
0.033691995 0.1097201 -0.107523836 0.028873475 0.109757796 0.09433122 -0.023146203 -0.0378296
-0.055551264 -0.061922573 -0.03728628 -0.0800985 -0.109995104 0.09915805 0.07111299 -0.07353469
-0.030474534 -0.028858883 0.09251436 0.07490234 0.090080455 -0.10946882 -0.11543102 -0.022158546
-0.08756822 -0.123659335 -0.04815893 0.080760874 -0.016036564 0.06787017 0.025001496 -0.001249948

sequential/dense_1/MatMul f4 [15, 50]
00000000: 53c1 6ebd 85c8 94be ec74 263e 9bff e9bd
00000010: 49b0 15be 1662 853e a4cf 453e 2d95 44be
00000020: dedf 363e 00c7 243d f1e2 99be f5e4 2a3e
00000030: 1044 d63d 0203 0bbe fd5e 6a3e 93ac 013e
00000040: ee55 953e 80c0 6d3e 9c27 4bbe 88d7 d03b
00000050: 111b 383e 0fd7 04be ca2a 8f3c f538 dcbd
00000060: a347 133e 3262 46bd 5523 9bbd b971 b03d
00000070: 4d96 c4bd 147d 573e ea1f b63d 0056 b3bb
00000080: 4e48 0e3e 2d3b 8bbc a4f3 b5bd 841d 4ebe
00000090: 50c6 32be a5f0 7fbe 75a1 903e 38a7 133d
000000a0: 29f1 f0bd cc79 71be 88c5 65be b4d5 3d3e
000000b0: c0d6 863d 0527 22be 64cc 7d3e 00e0 c8ba
000000c0: b675 373e 18ec bbbd f18f e83d f68f 36be
000000d0: 2488 0b3e 1192 493e 7c75 91be 05d7 73be
000000e0: d6da 94bc 436c 33be a875 3bbd 56c0 903e
000000f0: c806 213d 53ee 183c 5cc1 893e 00f1 bb3d
00000100: 65e0 59bd f11e 39be 0cfd f9bd eeb5 413e
00000110: d033 833c 5f70 fc3d 6e94 56be f6ff 67be
00000120: 9f25 093d 1164 82bc dca3 70bd 0db6 8b3e
00000130: f15f 92be f3f3 1f3e 4e0f 12be 0016 92bb
00000140: a671 2cbe 2039 133c 3640 2d3e 8aca 873e
00000150: ace0 77bd bfba 3d3e 1dff 4a3e 88d6 64be
00000160: bfd2 943d 9b1a 9abe aa2d d3bd 953a 9dbd
00000170: c099 51bd 0826 753d 678a 84be 2604 8f3e
00000180: 3abe 5e3e 0c2d 283e 7d15 43be 236c 24be
00000190: 0804 fcbd 8093 24bb 966e 833e 6a2d 483e
000001a0: cdca 77be b05e 4dbd aafc 903e 0c5b 6bbd
000001b0: d0b5 0e3d e4d8 27be dad7 8f3e f677 5bbe
000001c0: a650 c4bd e44e ba3d ab41 82be 0055 09bc
000001d0: 04df d13d c60c 89be 5089 9d3d d214 8abe
000001e0: c7fe 08be 14aa 5b3e 989a eb3d 5809 063d
000001f0: 3963 01be ec47 39be 4cd8 68be 1ad6 66be
00000200: bcfc 21be b601 6bbe baad 003e 80a9 df3c
00000210: 7005 b03d b445 813e 5e8c 003e 6007 be3d
00000220: 24ce 52be 40b4 eb3c 6871 003d c8b5 67bd
00000230: a7eb 77be 8683 283e 8930 97be 00c4 163c
00000240: 5262 13be 1494 0f3e bf97 4cbe 8861 4b3e
00000250: 84aa 483e 8c2d a23d e0c3 aabc 82ae 913e
00000260: 8eea e4bd 12cf 823e ee56 983e 3e82 05be
00000270: f0ac a3bd a069 c23d 30a4 eebd 2222 c5bd
00000280: 2af2 313e d018 55bd 2558 29be b006 0dbe
00000290: 803b 2e3c 3a59 66be 707c d33c 14a6 de3d
000002a0: 6019 4cbd 305e b5bc 826a 973e e8ca 4ebd
000002b0: a288 953e 7df4 80be 6015 fd3c ec05 4a3e
000002c0: 1860 603d 0e98 ecbd abca 8abe 0c31 dc3d
000002d0: 640f bebd d9e3 8fbe f013 203e dfb0 21be
000002e0: 5248 71be 601f 643c 1221 4dbe 7845 703e
000002f0: 6063 11bd e2eb 8a3e 6870 d83d 3a29 90be
00000300: 44db 75bd f864 323d f306 8abe 3004 4a3e
00000310: f48b a13d 2c67 5dbe 7035 e93d 1265 873e
00000320: 88f6 523d 64a4 d83d 2247 b3bd 083d 923d
00000330: 7efa c5bd d0f8 793e 5669 92be c407 77be
00000340: ad1a 79be 489b 86bd 4737 66be 69a4 64be
00000350: e07b 86bc 75dc 00be 2f68 60be b0bd 5b3e
00000360: 4026 e3bb 9686 82be 7243 0e3e 4ec8 48be
00000370: 1065 513e b045 073e 6827 943d 2026 773d
00000380: 42dd 443e 32b5 70be f8c1 643d 9f0e 50be
00000390: 80b9 443b a608 e7bd d058 813d 7826 2ebe
000003a0: 47e4 95be c90a 90be 9654 76be 20ff b4bc
000003b0: a42b 6d3e b024 5bbd 48c3 1c3d cc6c 48be
000003c0: e83e 333e 28b7 0abd 90a8 583e 0035 75bd
000003d0: ee78 39be 7ec1 8cbe 8c39 c8bd 8066 903d
000003e0: 9053 533d 781d 81be 4408 e63d 04d1 793e
000003f0: 8624 5bbe 033e 83be a004 7f3e 0036 2fba
-0.058289837 -0.29059234 0.1625554 -0.11425706 -0.14618029 0.26051396 0.1931749 -0.19197531
0.17858836 0.040228844 -0.30055955 0.16688903 0.10462201 -0.13575366 0.22887798 0.12663488
0.29167122 0.23217964 -0.19839329 0.0063733496 0.17979075 -0.12972663 0.017476458 -0.10753051
0.14382796 -0.04843349 -0.075750984 0.08615441 -0.0959898 0.21043807 0.08892806 -0.0054728985
0.1389477 -0.01699599 -0.088843614 -0.20128447 -0.17458463 -0.24994142 0.28248182 0.036048144
-0.11764748 -0.23581618 -0.22438633 0.18538553 0.06583929 -0.15835197 0.24785 -0.0015325546
0.17915997 -0.09175891 0.1135558 -0.17828354 0.13626152 0.19684626 -0.28409946 -0.23812492
-0.018170755 -0.17521767 -0.045766503 0.2827174 0.039313108 0.009334165 0.26905334 0.091768265
-0.053192515 -0.1807821 -0.12206468 0.18917057 0.016015917 0.123261206 -0.20955059 -0.22656235
0.033483144 -0.015916856 -0.05875002 0.2728733 -0.28588822 0.15620403 -0.14263651 -0.004458189
-0.16840228 0.008985788 0.16919026 0.26521713 -0.060517 0.18528269 0.1982388 -0.22347462
0.07266759 -0.30098423 -0.10311444 -0.07677189 -0.051172018 0.059850723 -0.25886843 0.27932853
0.21752253 0.16423434 -0.19051166 -0.16056876 -0.123054564 -0.002511233 0.25670308 0.19548574
-0.24198456 -0.05013913 0.28317767 -0.057459876 0.03484136 -0.16391331 0.2809437 -0.2143248
-0.09585695 0.090970784 -0.25440726 -0.008382082 0.10247615 -0.26767558 0.07692206 -0.2696901
-0.1337844 0.21451598 0.11504096 0.032723755 -0.12635507 -0.18093842 -0.2273876 -0.22542611
-0.15819067 -0.22949871 0.12566271 0.027302504 0.08594787 0.25248492 0.12553546 0.092787504
-0.20586449 0.028772473 0.031358153 -0.056569844 -0.24210988 0.16456422 -0.29529217 0.0092020035
-0.14392975 0.14021331 -0.19979762 0.19861424 0.19596297 0.079188436 -0.020845354 0.2845345
-0.1117755 0.25548607 0.29753822 -0.13037965 -0.079919696 0.094928026 -0.1165241 -0.09625651
0.17377535 -0.052025616 -0.1653753 -0.13772082 0.010634303 -0.22494975 0.025816172 0.10871521
-0.049828887 -0.022139639 0.29573447 -0.050486475 0.29205805 -0.2518653 0.030893981 0.19728822
0.054779142 -0.1155244 -0.27107748 0.107515424 -0.09280279 -0.2810352 0.15632606 -0.15790127
-0.23562744 0.013923496 -0.20032147 0.23464 -0.035495162 0.2713309 0.10568315 -0.28156453
-0.06002356 0.043553323 -0.26958427 0.1972816 0.07888022 -0.21621388 0.113871455 0.26444298
0.05150464 0.1057823 -0.08753802 0.07140547 -0.09666918 0.2441132 -0.2859599 -0.24124056
-0.24326582 -0.06572586 -0.22482024 -0.22328342 -0.01641649 -0.12584098 -0.21914743 0.21459079
-0.00693205 -0.25493306 0.13892916 -0.1960766 0.20448709 0.13210177 0.07234079 0.060339093
0.19225028 -0.2350662 0.055849046 -0.20318078 0.0030017793 -0.112809464 0.06315768 -0.17006862
-0.29275724 -0.28133228 -0.24055704 -0.02209431 0.23161179 -0.053501785 0.038272172 -0.19572753
0.17504466 -0.033866078 0.21158051 -0.059864998 -0.18112537 -0.27491373 -0.09776601 0.070508
0.051593363 -0.25217795 0.11232045 0.2439614 -0.21400651 -0.2563325 0.24904108 -0.0006683767

sequential/dense_2/MatMul f4 [3, 15]
00000000: 064e d2bd b133 ba3e 40a0 89bc c000 5e3d
00000010: 045e 563e 4e54 103f 0140 593e 2975 043f
00000020: 2405 de3e 0fe9 413e 2a76 8dbe c686 babe
00000030: 9d22 f73e 7200 083f aafe 0a3d 5981 6b3d
00000040: 9fdb 2ebd be84 1fbe fe5a a43e 6c9c 4abe
00000050: 5474 3ebe e8cc 98be 7453 0ebf 8025 bbbb
00000060: 2a4e 9fbd cdcd a93e 33eb 03be f896 1fbe
00000070: de4f a63e 33f6 aa3e 6a99 05bf 4e19 bdbe
00000080: daca 38be c0f4 72be 5686 3ebe 9cd6 e23e
00000090: 86eb 49be 97a4 c2be 7c06 09bf 625f d93e
000000a0: 3419 8f3e 8cab 0fbf a99f ee3d f02f c3bd
000000b0: 2b47 c3be
-0.10268788 0.36367562 -0.016800046 0.054199934 0.20934302 0.5637864 0.21215822 0.5174127
0.43363297 0.18936561 -0.27629215 -0.3643095 0.48268595 0.5312568 0.033934273 0.057496402
-0.042689916 -0.15577981 0.32100672 -0.19786233 -0.18599063 -0.2984383 -0.5559609 -0.0057112575
-0.077785805 0.33164826 -0.1288269 -0.15584934 0.3248281 0.3339096 -0.52187216 -0.36933368
-0.18046132 -0.23726177 -0.18605933 0.4430436 -0.19718751 -0.38016197 -0.5352552 0.42455584
0.27948916 -0.56121135 0.116515465 -0.09530628 -0.38140234
